…
NiNの解説では、活性化関数を1x1のconvで学習することを狙っている
Maxoutなどの非線形な活性化関数そのものも学習の対象にするらしい
学習データとしてCifar10(state of the art:95%)を試す

ARMのメモリ速度を測り、これを参考にネットワークを設計すると、
メモリ量を1/1000にすればリアルタイム的な動きになるかもしれないと

1/1000が目標で、1/100が妥協点

[■Cifar10について]
画像サイズは32x32のカラー
50000の試験データ
10000のテストデータ
10クラス
　airplane  
　automobile
　bird      
　cat       
　deer      
　dog       
　frog      
　horse     
　ship      
　truck     
上記でのコンテストデータでstate of the artで95%程度

[■YOLOのWebページでCifar10を試す]
DarknetのWebでCifar10の実行環境が示されているのでこれに従ってみる
ネットワークはcifar_small.cfgを使う↓

layer     filters    size              input                output
    0 conv     32  3 x 3 / 1    28 x  28 x   3   ->    28 x  28 x  32
    1 max          2 x 2 / 2    28 x  28 x  32   ->    14 x  14 x  32
    2 conv     64  3 x 3 / 1    14 x  14 x  32   ->    14 x  14 x  64
    3 max          2 x 2 / 2    14 x  14 x  64   ->     7 x   7 x  64
    4 conv    128  3 x 3 / 1     7 x   7 x  64   ->     7 x   7 x 128
    5 conv     10  1 x 1 / 1     7 x   7 x 128   ->     7 x   7 x  10
    6 avg                        7 x   7 x  10   ->    10
    7 softmax                                          10
    8 cost                                             10

32x32を28x28に切り取っているらしい
28x28->14x14->7x7->10と画像サイズは変化する
最終段は1x1のカーネル形状だな

結果：15000epoch程度で70%程度のmAPとなる

[■小ささを追求すると]
NiNの形で小型化を試す
NiNを1つでネットワークを構成してみる
pooling処理は重みを使わないので多用してみる

layer     filters    size              input                output
    0 conv     32  3 x 3 / 1    32 x  32 x   3   ->    32 x  32 x  32
    1 max          3 x 3 / 3    32 x  32 x  32   ->    11 x  11 x  32
    2 conv     32  1 x 1 / 1    11 x  11 x  32   ->    11 x  11 x  32
    3 conv     32  1 x 1 / 1    11 x  11 x  32   ->    11 x  11 x  32
    4 max          3 x 3 / 3    11 x  11 x  32   ->     4 x   4 x  32
    5 conv     10  1 x 1 / 1     4 x   4 x  32   ->     4 x   4 x  10
    6 avg                        4 x   4 x  10   ->    10
    7 softmax                                          10
    8 cost                                             10

convは全て画像サイズを変えない
max_poolingで画像サイズを縮小
1層3x3カーネルと3層1x1カーネルの構造
結果：5000epochで正解率は45%程度
結果：15000epochで正解率は48%程度

[■学習すべき問題を簡単にしてみる]
↑のネットワークを、クラス3つに限定した問題へ適用してみる
最終段は3チャネル

layer     filters    size              input                output
    0 conv     32  3 x 3 / 1    32 x  32 x   3   ->    32 x  32 x  32
    1 max          3 x 3 / 3    32 x  32 x  32   ->    11 x  11 x  32
    2 conv     32  1 x 1 / 1    11 x  11 x  32   ->    11 x  11 x  32
    3 conv     32  1 x 1 / 1    11 x  11 x  32   ->    11 x  11 x  32
    4 max          3 x 3 / 3    11 x  11 x  32   ->     4 x   4 x  32
    5 conv      3  1 x 1 / 1     4 x   4 x  32   ->     4 x   4 x   3
    6 avg                        4 x   4 x   3   ->     3
    7 softmax                                           3
    8 cost                                              3
3クラス
　automobile
　truck
　background
automobileとtruck以外のpngは全部backgroundと名前を変換
学習すべきデータの総量は変わらず

つまり車だけを見つける問題(top2)として正解率を求める

結果：5000epochで87%程度のmAPとなった
結果：15000epochで88.5%程度のmAPとなった
…
